trained_model.pt (torch, 348099 bytes, 4 tensors)

conv1.bias f4 [512]
0	0xbcd82932	-0.026386831
1	0xbda84c07	-0.08217626
2	0xbd759629	-0.059957657
3	0xbd740024	-0.059570447
4	0x3dee79a5	0.116442956
5	0xbd761eb7	-0.060087886
6	0x3dc5f1d6	0.09665267
7	0x3b212c7f	0.0024593172
8	0x3c289d97	0.010291479
9	0xbd7ad8eb	-0.061242025
10	0xbd1ce57d	-0.038304795
11	0xbd6f617c	-0.058442578
12	0xbda30070	-0.07959068
13	0x3d8b93cf	0.068153016
14	0xbd3de4a3	-0.046360623
15	0xbda60abe	-0.08107518
16	0x3df29cae	0.118462905
17	0x3be67e69	0.0070341122
18	0xbd70f5f6	-0.058828317
19	0xbd73a59b	-0.059484106
20	0x3a06c6be	0.0005141309
21	0xbeafb825	-0.3432018
22	0xbdc0d1d2	-0.0941502
23	0x3d61e29b	0.05514775
24	0xbd6b6fca	-0.057479657
25	0x3e2ddee2	0.16979554
26	0x3e2634ce	0.16231081
27	0x3d1356cf	0.03597146
28	0x3d156b2b	0.036479156
29	0xbd75bd63	-0.059995066
30	0xbd48d2d7	-0.049029198
31	0xbeb79a31	-0.35859826
32	0xbd701886	-0.058617137
33	0xbe38b4ce	-0.18037722
34	0x3d6894c1	0.056782488
35	0xbd51e720	-0.05124581
36	0xbd6a32ca	-0.057177342
37	0xbcb1843f	-0.021669505
38	0xbd3517e8	-0.044212252
39	0xbd6dfac7	-0.058100488
40	0xbd6de417	-0.05807885
41	0xbd74c3f1	-0.059757177
42	0xbd68dc07	-0.05685046
43	0x3c0efb49	0.008726903
44	0x3dd849af	0.10560929
45	0x3e159d0f	0.14610694
46	0xbd922f06	-0.07137875
47	0xbd8a93c2	-0.06766464
48	0xbd44271c	-0.04788886
49	0x3ded0370	0.11572921
50	0xbd5ba6ca	-0.05362586
51	0xbd777c9b	-0.060421567
52	0xbd84c54c	-0.06482944
53	0xbf073250	-0.52811146
54	0xbe562922	-0.20914128
55	0xbd67f438	-0.05662939
56	0xbc588435	-0.013215114
57	0x3d80d8a2	0.062913194
58	0xbc72da8f	-0.014822616
59	0xbcb2c118	-0.02182059
60	0x3d830349	0.06397111
61	0xbd6cf3fb	-0.057849865
62	0xbc90b517	-0.017664475
63	0xbc856517	-0.016283555
64	0x3c85f74f	0.016353277
65	0xbaa05716	-0.0012232985
66	0xbd735f2e	-0.059416942
67	0xbd76a2fd	-0.06021403
68	0xbcdaa95e	-0.026692089
69	0x3ca5181e	0.020153102
70	0x3d3becf5	0.045880277
71	0xbca6cb72	-0.020360682
72	0xbd685534	-0.05672188
73	0xbd761b9d	-0.060084928
74	0xbd9ebf7c	-0.077513665
75	0xbd74b412	-0.05974204
76	0xbe860339	-0.26174334
77	0x3daf4f3c	0.08560035
78	0xbd16bfdd	-0.03680407
79	0xbd58f5c6	-0.052968763
80	0xbd756f4b	-0.05992059
81	0x3dba76e4	0.09104708
82	0xbd182ec5	-0.037153978
83	0xbd8151e2	-0.06314446
84	0xbdb287cd	-0.08717308
85	0x3da4546e	0.08023916
86	0xbd75dde3	-0.06002606
87	0xbd740bce	-0.05958157
88	0xbd74e2bf	-0.059786554
89	0xbd0c84a5	-0.034306187
90	0x3dab5437	0.08365672
91	0x3e75df28	0.24010909
92	0x3e83c747	0.25737974
93	0xbd4f4923	-0.050606858
94	0xbd42fcdc	-0.047604427
95	0x39f9c568	0.0004764006
96	0xbd37aa01	-0.044839863
97	0xbd75c020	-0.059997678
98	0xbe02bf0d	-0.12768193
99	0xbd8167a7	-0.06318598
100	0x3d276358	0.040866226
101	0xbd760df5	-0.060071904
102	0xbd70ef68	-0.058822066
103	0x3dee855f	0.11646532
104	0xbcae6fd9	-0.021293567
105	0xbdf91f42	-0.12164165
106	0xbd73c9be	-0.05951857
107	0xbd184ae3	-0.037180793
108	0xbbb62de7	-0.005559671
109	0x3dd6166a	0.10453494
110	0x3da21e68	0.07915956
111	0xbd725ba7	-0.059169438
112	0xbd662677	-0.056189027
113	0x3d619002	0.055068977
114	0xbd7555bf	-0.059896227
115	0xbd658a0f	-0.056039866
116	0x3e15e2d3	0.14637308
117	0x3dc7ff18	0.09765452
118	0x3eb5fc87	0.35544226
119	0xbd2e3834	-0.04253407
120	0x3cd187d4	0.025577463
121	0x3e3e7c89	0.18602194
122	0xbf279d06	-0.65473974
123	0x3ddeb73a	0.108747914
124	0xbd136109	-0.03598121
125	0xbd77df7b	-0.060515862
126	0xbd755899	-0.059898946
127	0xbe482985	-0.19547088
128	0xbd75b1cf	-0.059984025
129	0x3c82d37f	0.01596999
130	0xbe12cf13	-0.14336805
131	0xbd72409a	-0.05914364
132	0x3c1f3b55	0.009718736
133	0xbdb348fe	-0.087541565
134	0x3d8e74e0	0.06955886
135	0x3d0d66f8	0.034522027
136	0xbd4d1d17	-0.05007657
137	0xbebd48f4	-0.3696972
138	0xbd7568c6	-0.059914373
139	0xbdea2196	-0.11432187
140	0x3c28e6ee	0.010308964
141	0x3d32d755	0.043662388
142	0x3de19fca	0.110168055
143	0x3d1fb300	0.038989067
144	0xbd38b94b	-0.045098584
145	0xbd3660e0	-0.04452598
146	0xbd752c25	-0.059856553
147	0x3dd93516	0.106058285
148	0x3d6b90b0	0.05751103
149	0xbd1523f1	-0.03641123
150	0xbe344d57	-0.17607628
151	0xbd9177b0	-0.07102907
152	0xbd7b1551	-0.061299626
153	0xbd901161	-0.07034565
154	0xbd06119f	-0.03273165
155	0x3e75e81d	0.24014325
156	0x3e854bf2	0.26034504
157	0x3e215406	0.15754709
158	0xbd75387c	-0.05986832
159	0xbd77633e	-0.06039738
160	0xbd6d8df3	-0.0579967
161	0xbda19ebf	-0.078916065
162	0xbd763fa4	-0.060119286
163	0xbd0ab21b	-0.03386126
164	0x3e02a22e	0.12757179
165	0xbe81c79f	-0.2534761
166	0xbd74d357	-0.059771862
167	0xbe41c375	-0.18922217
168	0xbd6cbe8b	-0.057798903
169	0x3dea503c	0.11441085
170	0xbb370346	-0.0027925535
171	0xbd3afbcf	-0.0456503
172	0xbd758163	-0.059937846
173	0xbd7951cf	-0.060869034
174	0x3dc0abb7	0.09407752
175	0xbd74b9aa	-0.059747376
176	0xbd741786	-0.059592746
177	0xbd74a68a	-0.059729137
178	0xbd9d9fc2	-0.07696487
179	0xbd706dd5	-0.058698494
180	0x3e5cab33	0.21549682
181	0xbdac3ed3	-0.0841042
182	0xbbc3130d	-0.0059531988
183	0xbcc0bfc9	-0.02352895
184	0xbd6598d7	-0.056053963
185	0x3d5e8946	0.054330133
186	0x3e33f688	0.17574513
187	0xbd0552f0	-0.0325498
188	0xbd734760	-0.05939424
189	0x3da0b029	0.078461
190	0xbe7fcf60	-0.24981451
191	0xbd74f7a4	-0.05980648
192	0x3da30eab	0.07961782
193	0xbf2923db	-0.66070336
194	0x3e485ef6	0.19567475
195	0xbd743d11	-0.05962855
196	0xbe2ede38	-0.17076957
197	0xbe6e339d	-0.23261876
198	0x3dd5503c	0.10415694
199	0xbd7313cb	-0.059345048
200	0xbd595fbd	-0.05306982
201	0x3e10989c	0.14120716
202	0xbd5ceaa9	-0.053934727
203	0x3cdda355	0.027055422
204	0xbd753f7b	-0.059874993
205	0x3cd96f09	0.026542204
206	0xbd49e634	-0.049291804
207	0xbd760bd1	-0.060069863
208	0xbd75e830	-0.060035884
209	0xbdc301d3	-0.09521832
210	0xbe40cb34	-0.18827516
211	0xbd7704cf	-0.06030732
212	0xbf29c22c	-0.6631191
213	0xbd67c252	-0.056581803
214	0xbe8af28b	-0.2713817
215	0x3de54b66	0.11196022
216	0xbd225d96	-0.03964003
217	0xbd73436c	-0.05939047
218	0xbd8831a7	-0.066500954
219	0xbe788a24	-0.24271446
220	0xbec04f64	-0.3756057
221	0x3d412cb9	0.04716179
222	0xbdb080a7	-0.086182885
223	0xbd75d772	-0.060019918
224	0xbd748a74	-0.05970235
225	0x3b339cd0	0.00274067
226	0xbd74f35f	-0.05980241
227	0xbd734a6f	-0.059397157
228	0xbd7032fd	-0.058642376
229	0xbd5a6890	-0.053322375
230	0xbd2a33c7	-0.041553285
231	0x3d76bfcb	0.0602415
232	0xbde652d5	-0.11246268
233	0xbe2a0763	-0.1660438
234	0x3dce38c1	0.10069419
235	0xbd26cf50	-0.040725052
236	0xbe6b27f1	-0.22964455
237	0xbef9be00	-0.4877777
238	0xbdeed61c	-0.11661932
239	0x3d0b68d9	0.034035537
240	0xbd350f50	-0.044204056
241	0xbd1ab8d9	-0.03777394
242	0xbd51b598	-0.051198572
243	0xbd2adf0f	-0.04171663
244	0xbd4b43f5	-0.049625356
245	0x3df4c5d6	0.11951797
246	0x3e227330	0.15864253
247	0xbd46bbf3	-0.048519086
248	0xbd292ab8	-0.041300505
249	0xbd751dc0	-0.059842825
250	0xbdac06de	-0.08399747
251	0x3e4222e6	0.18958625
252	0x3e47b53e	0.19502732
253	0xbd1247ed	-0.035713125
254	0xbd71401c	-0.05889903
255	0xbd65fcb2	-0.056149192

conv1.lin.weight f4 [512, 128]
0	0x3a8ee0bf	0.001090072
1	0x3cc186f9	0.02362393
2	0xbbf9aa13	-0.0076191514
3	0xbcb0c426	-0.021577906
4	0x3da54381	0.08069516
5	0x3db1a807	0.08674627
6	0x3c96459a	0.018343735
7	0x3def2359	0.11676664
8	0xbdc99c73	-0.098442934
9	0xbca27b6a	-0.019834239
10	0xbcb08328	-0.021546915
11	0x3df69946	0.12040953
12	0xbd91572f	-0.07096707
13	0x3cfff914	0.0312467
14	0x3d925426	0.07144956
15	0xbd33cc41	-0.043895964
16	0xbd4a6c8c	-0.049419925
17	0xbde0ccef	-0.10976588
18	0xbc4b6a3f	-0.012415468
19	0xbcb34862	-0.0218851
20	0xbd56315c	-0.052293167
21	0xbd13c4aa	-0.036076225
22	0x3cb6560d	0.02225783
23	0xbd27f9e6	-0.041009806
24	0xbc943818	-0.018093154
25	0xbddf67a5	-0.109084405
26	0x3dacdf70	0.08441055
27	0x3c125da5	0.008933459
28	0x3e04be49	0.12963213
29	0x3d31bc74	0.043392614
30	0x3dd15d6c	0.10222897
31	0xbdc2ea42	-0.095173374
32	0x3d02b592	0.03191144
33	0x3c9b4c93	0.018957412
34	0xbd8f5269	-0.0699814
35	0x3c84140e	0.016122844
36	0x3dc16acf	0.094442
37	0x3e25cd8d	0.16191693
38	0xbd8ed0f8	-0.069734514
39	0x3d5af6b1	0.05345792
40	0x3beafd52	0.0071713114
41	0xbd92ab8e	-0.07161628
42	0xbd79b355	-0.06096204
43	0xbb37e13a	-0.002805783
44	0xbda22f79	-0.07919211
45	0xbd0ca57b	-0.034337502
46	0xbd664be2	-0.05622471
47	0x3d9e2cfb	0.07723423
48	0xbd38cc99	-0.045116995
49	0xbdd82d5e	-0.10555528
50	0xbd82485a	-0.06361456
51	0x3c2e0e85	0.010623579
52	0xbd8909c4	-0.06691316
53	0xbc08de9a	-0.008353854
54	0x3d4b8f25	0.04969706
55	0x3d57f2f5	0.052721936
56	0x3d8d0298	0.0688526
57	0x3d02501c	0.03181468
58	0xbda89b9e	-0.082328066
59	0x3dd06a00	0.10176468
60	0xbdd77674	-0.1052064
61	0x3cbd9dbb	0.0231465
62	0xbdbf145e	-0.093300566
63	0x3c029752	0.007970648
64	0x3e39d77d	0.18148609
65	0x3ce22539	0.02760564
66	0xbc816ab3	-0.015797948
67	0xbdc24b3e	-0.094870076
68	0xbd7741be	-0.06036543
69	0xbd60a542	-0.054845102
70	0xbc76736c	-0.015042167
71	0x3c76a349	0.015053579
72	0x3d59caef	0.05317205
73	0x3db4154a	0.08793123
74	0xbd8ce627	-0.068798356
75	0xbd88eb03	-0.0668545
76	0x3dbbe988	0.09175402
77	0x3d4ca32d	0.049960304
78	0xbca9fc77	-0.020750267
79	0xbd8509df	-0.064960234
80	0xbd826c61	-0.06368328
81	0xbd3d77c1	-0.046256784
82	0x3c906a25	0.017628739
83	0x3bfdd790	0.0077466443
84	0xbdc8d117	-0.09805506
85	0x3d0a7365	0.033801455
86	0x3ad691b6	0.001637033
87	0xbd796cd1	-0.06089479
88	0xbd981f89	-0.0742789
89	0xbe0d5d77	-0.13805185
90	0xbc3e3b2b	-0.011610786
91	0x3dbd376f	0.09239089
92	0xbd7b3890	-0.06133324
93	0x3dbbdf57	0.09173458
94	0xbd751fa8	-0.059844643
95	0x3d96d19c	0.073641986
96	0x3dbea7d3	0.09309354
97	0x3d18eff0	0.037338197
98	0xbd8e384e	-0.06944333
99	0x3dc00e17	0.093776874
100	0x3cf74050	0.030182034
101	0x3cc5f62a	0.024165232
102	0xbc1b8698	-0.009492539
103	0x3d9a48f2	0.075334445
104	0x3d3e3fa6	0.04644742
105	0x3c025f1a	0.007957244
106	0x3d1a94f9	0.037739728
107	0xbc8226e6	-0.015887689
108	0x3d782c07	0.060588863
109	0xbdca8f46	-0.098906085
110	0xbd26bb34	-0.040705875
111	0x3d52a5ce	0.051427655
112	0xbb82f644	-0.0039966423
113	0x3c419326	0.011814868
114	0xbde0d300	-0.10977745
115	0x3d1eb143	0.03874327
116	0x3d198b6c	0.03748648
117	0x3c3d4ed7	0.011554441
118	0x3db8a9e9	0.09016783
119	0x3b7d5578	0.003865568
120	0x3d8148b1	0.06312693
121	0xbd917609	-0.071025915
122	0xbdb6f8e7	-0.08934193
123	0x3c0f46fd	0.008744952
124	0xbdb600c8	-0.08886868
125	0xbdabb11f	-0.083833925
126	0xbd4fc9ec	-0.050729677
127	0x3d48a69f	0.048987027
128	0x3e75cd36	0.24004063
129	0x3eac8acc	0.33699644
130	0xbe9c5448	-0.30533051
131	0x3e7b67d2	0.24551323
132	0xbd5b3cd6	-0.053524815
133	0xbc3e0483	-0.011597755
134	0x3e1b9af6	0.15195832
135	0xbe0e80d2	-0.13916329
136	0x3e791b29	0.24326767
137	0xbfa39a24	-1.2781415
138	0x3cdc2074	0.026870944
139	0x3e9e785e	0.30951208
140	0x3e5529e8	0.20816767
141	0xbec63709	-0.38713863
142	0x3ef8115e	0.4845075
143	0xbf369e18	-0.7133498
144	0x3e37dd09	0.17955412
145	0xbc261b81	-0.010138393
146	0xbe21d71f	-0.15804718
147	0xbed153a7	-0.40884134
148	0x3e97a7ea	0.29620296
149	0x3e1a2b9c	0.15055698
150	0xbbd81aff	-0.006595015
151	0xbef532de	-0.4789037
152	0x3ee5fa2e	0.44917434
153	0xbded92a4	-0.11600235
154	0xbf0bd041	-0.54614645
155	0xbf010bdb	-0.50408715
156	0x3e1c8375	0.15284522
157	0xbd989518	-0.074503124
158	0x3ed02e56	0.40660352
159	0xbedfb094	-0.43689406
160	0xbb9c0c4d	-0.0047622086
161	0xbe16eaea	-0.1473805
162	0x3c7b4d0a	0.015338192
163	0xbf0ef04b	-0.5583541
164	0xbd956823	-0.07295253
165	0x3dcfbad5	0.10143057
166	0x3baaf5c2	0.005217285
167	0xbd749ac2	-0.0597179
168	0x3f04f0c8	0.51929903
169	0xbf4b39ee	-0.7938527
170	0x3f4feab9	0.81217533
171	0x3d906505	0.07050518
172	0x3e8c642d	0.27420178
173	0x3e282f30	0.1642425
174	0x3dd744db	0.1051118
175	0x3ed8e6ce	0.4236359
176	0xbe72c801	-0.23709108
177	0x3da2cdc1	0.07949401
178	0xbe46e05b	-0.19421522
179	0x3e144dce	0.14482805
180	0xbd872d94	-0.0660049
181	0xbd633982	-0.055474766
182	0xbddfacee	-0.109216556
183	0x3ecadbe2	0.39620882
184	0x3e789bf9	0.24278249
185	0x3e9c99c4	0.30586064
186	0xbf4e5b01	-0.8060761
187	0xbf154910	-0.5831461
188	0xbeb017f5	-0.34393278
189	0xbe8f8adb	-0.28035626
190	0xbd49ef90	-0.04930073
191	0xbe70aeae	-0.23504135
192	0x3f01197c	0.5042951
193	0x3f06e8e0	0.5269909
194	0xbe801803	-0.2501832
195	0xbf0c35ff	-0.5476989
196	0xbd479d23	-0.04873384
197	0xbe004a58	-0.1252836
198	0x3e082fa7	0.13299428
199	0xbf4985d9	-0.7871986
200	0x3e85de05	0.2614595
201	0xbe28ad66	-0.16472396
202	0x3f02fc87	0.51166576
203	0x3e76d44d	0.24104424
204	0x3e704c13	0.2346652
205	0xbd2a2d72	-0.041547246
206	0x3db8c1eb	0.09021362
207	0xbe92dbae	-0.28683227
208	0xbf1e436b	-0.6182162
209	0x3df4aa0b	0.119464956
210	0x3e9d2104	0.3068925
211	0xbe14ecbe	-0.14543435
212	0x3da1be57	0.078976326
213	0xbed2e796	-0.4119231
214	0x3e8c441b	0.2739571
215	0x3dca2729	0.098707505
216	0x3d1a718c	0.037705943
217	0xbeb1a056	-0.3469264
218	0x3ece043b	0.40237603
219	0xbf179d2f	-0.5922422
220	0x3f16f0b8	0.5896106
221	0x3ce98501	0.028505804
222	0x3e73bb45	0.23801906
223	0x3ece093b	0.40241417
224	0xbeaaac3a	-0.33334523
225	0xbf438ca1	-0.7638646
226	0x3e285614	0.16439086
227	0x3cc73401	0.02431679
228	0xbf05f33f	-0.5232429
229	0xbe889036	-0.26672524
230	0xbcb65b8d	-0.022260452
231	0x3ebfb392	0.3744169
232	0x3e92368e	0.28557247
233	0x3d11e848	0.03562191
234	0xbedad478	-0.42740226
235	0xbe73dc30	-0.23814464
236	0xbf399f2c	-0.725085
237	0xbe449866	-0.1919876
238	0xbedea58f	-0.43485686
239	0x3d032f02	0.032027252
240	0xbe220b9a	-0.15824738
241	0xbebd4959	-0.36970022
242	0xbe7377be	-0.23776147
243	0xbec3754f	-0.38175437
244	0x3d799d49	0.060941014
245	0xbd5d876d	-0.05408423
246	0xbf10cf7a	-0.56566584
247	0x3eb66ed9	0.35631445
248	0x3ee884bc	0.45413768
249	0x3e2c59d1	0.16831137
250	0xbedfe2f5	-0.43727842
251	0xbeb187cd	-0.3467392
252	0x3e570e71	0.21001603
253	0x3e963312	0.2933584
254	0x3eded2dc	0.43520248
255	0x3e08e757	0.13369499

conv2.bias f4 [40]
0	0xbf9e0d3e	-1.2347791
1	0xbf9a80e3	-1.2070583
2	0x3d7a6bf9	0.061138127
3	0xbf82dd40	-1.022377
4	0x3b8f5f47	0.0043753716
5	0x3d13c941	0.036080603
6	0xbf4a63c3	-0.79058474
7	0xbfa29d3a	-1.2704232
8	0x3d1594c1	0.036518816
9	0xbf29a2a1	-0.66263777
10	0x3e1c7d04	0.15282065
11	0xbfaec271	-1.3653089
12	0xbea34768	-0.31890416
13	0xbf9513ed	-1.1646706
14	0xbf96e2d4	-1.1787972
15	0xbf76f0ca	-0.96461165
16	0x3f7c36cf	0.9852113
17	0xbf650608	-0.8946233
18	0xbec06b88	-0.3758204
19	0xbcb68248	-0.02227892
20	0xbf3d8d10	-0.7404337
21	0xbf9fa432	-1.2471983
22	0xbf365240	-0.71219254
23	0xbef4464d	-0.47709885
24	0x3ef5a8c7	0.4798033
25	0xbe85640d	-0.26052895
26	0x3e99c490	0.30032778
27	0xbe64527a	-0.22297087
28	0x3f2f69c1	0.6852074
29	0xbfea48f5	-1.8303515
30	0x3f284c62	0.6574155
31	0xbecbbe39	-0.39793566
32	0xbf70a7e9	-0.9400621
33	0xbebea46b	-0.37234816
34	0x3d08f036	0.033432208
35	0xbf1a490f	-0.6026773
36	0xbcbbcc26	-0.022924494
37	0xbf7429f2	-0.95376503
38	0xbeb7a38c	-0.35866964
39	0xbf8bcc2c	-1.0921683

conv2.lin.weight f4 [40, 512]
0	0x3d325077	0.04353377
1	0x3e2f843d	0.17140289
2	0xbc5ef3ad	-0.0136079015
3	0xbe1a0505	-0.15040977
4	0xbe69565c	-0.2278685
5	0xbcf2894f	-0.02960649
6	0xbdf426aa	-0.11921437
7	0xbda818a3	-0.08207824
8	0xc00e9815	-2.2280324
9	0xbd91d74c	-0.07121143
10	0x3d48d0b7	0.04902717
11	0xbd499349	-0.049212728
12	0x3c5c7462	0.013455482
13	0x3e24099d	0.16019292
14	0x3e43a0b8	0.19104278
15	0x3e572cb7	0.21013151
16	0x3d7539f8	0.059869736
17	0x3db454b4	0.08805218
18	0x3cfa2402	0.030534748
19	0xbe22893f	-0.15872668
20	0xbea5a4df	-0.3235235
21	0x3f4dfd53	0.8046467
22	0x3dbbdd0c	0.09173021
23	0x3eaa7a8d	0.33296624
24	0xbca1b107	-0.019737734
25	0x3f15d6a6	0.5853065
26	0x3d8709dd	0.06593678
27	0x3b769e92	0.0037631136
28	0xbe35b52a	-0.1774489
29	0xb982ad47	-0.00024924634
30	0xbd90d6c0	-0.0707221
31	0x3ecc9f8d	0.39965478
32	0x3ca8b7d6	0.020595472
33	0x3e97d885	0.2965738
34	0xbe0da58b	-0.13832681
35	0xbca1fc32	-0.019773576
36	0xbdbcc0ee	-0.09216486
37	0x3e81d688	0.25358987
38	0xbd7387e5	-0.05945577
39	0x3c99d5a4	0.01877863
40	0xbcdc845f	-0.026918588
41	0xbd8aa3a4	-0.06769493
42	0xbded74e3	-0.1159456
43	0x3e3543c2	0.17701629
44	0x3e90bfcb	0.28271326
45	0xbd84364e	-0.0645567
46	0x3e347fec	0.17626923
47	0xbdc61362	-0.09671666
48	0xbe01550e	-0.12630102
49	0xbec9e48d	-0.39432183
50	0x3e88701f	0.26648042
51	0xbd8785fc	-0.06617352
52	0x3b0a8b5d	0.0021140196
53	0xbddc4f60	-0.10757327
54	0xbd8d1064	-0.06887892
55	0xbd140f0e	-0.03614717
56	0x3c94d8ee	0.018169846
57	0x3e4fb11e	0.20282409
58	0x3d0fcfc2	0.035110243
59	0x3e0855e3	0.13314013
60	0x3de7c659	0.11317129
61	0x3d208f8e	0.039199404
62	0xbdcab6ae	-0.09898125
63	0x3eb417e4	0.35174477
64	0x3dfd0a22	0.12355448
65	0xbf8497b8	-1.0358801
66	0xbd424bc7	-0.04743555
67	0x3cdf1313	0.027230775
68	0x3ea47456	0.32120007
69	0x3d9bc709	0.07606322
70	0x3ea33e9c	0.31883705
71	0xbe43dbe1	-0.19126846
72	0xbb68820c	-0.0035477905
73	0xbd544621	-0.051824693
74	0xbd569e6b	-0.052397173
75	0x3b06983b	0.0020537514
76	0xbf48a618	-0.7837844
77	0xbedba272	-0.42897373
78	0x3cbe8d06	0.023260605
79	0xbd1c8184	-0.038209453
80	0xbd9ea308	-0.077459395
81	0xbe225b7a	-0.15855208
82	0xbdea2103	-0.11432078
83	0xbd1f1332	-0.038836665
84	0xbd91a6fc	-0.07111928
85	0xbeb58d96	-0.35459584
86	0x3c444a7b	0.011980648
87	0xbd203f7e	-0.03912305
88	0xbaafb143	-0.0013404269
89	0xbd48dc8c	-0.049038455
90	0xbe8676e9	-0.26262596
91	0xbf1622ca	-0.58646834
92	0x3eadb7c0	0.33929253
93	0x3e1de67d	0.15419956
94	0x3d1f1537	0.03883859
95	0x3d3e75fa	0.04649923
96	0x3df6d99a	0.12053223
97	0xbdcce16b	-0.100039326
98	0xbe23baf5	-0.15989287
99	0xbd804b7d	-0.06264398
100	0xbd8b6439	-0.06806225
101	0xbdc340c2	-0.09533836
102	0xbd429a92	-0.04751069
103	0x3ebe3eba	0.37157232
104	0xbdc0b821	-0.0941012
105	0xbe83a30b	-0.2571033
106	0xbd9e3e44	-0.0772672
107	0xbe15cbb8	-0.14628494
108	0x3f0ac9ee	0.5421437
109	0xbcafb295	-0.02144746
110	0x3e8252b1	0.25453714
111	0xbe038d3b	-0.12846844
112	0xbe1bdb09	-0.15220274
113	0x3cb45894	0.022014894
114	0xbd69037a	-0.05688808
115	0x3e69642f	0.22792123
116	0xbf1d8c02	-0.6154176
117	0xbdcc53fb	-0.099769555
118	0xbddeee55	-0.10885302
119	0xbdcd7c43	-0.10033467
120	0x3e456325	0.19276102
121	0x3e369acc	0.17832488
122	0xbf257629	-0.64633423
123	0xbe06ebdf	-0.13175915
124	0x3e738df9	0.23784627
125	0xbda9a950	-0.08284247
126	0xbdbd8d97	-0.09255522
127	0x3ea09385	0.31362548
128	0xbdb451eb	-0.08804687
129	0x3e5359d4	0.20639735
130	0x3e9162e3	0.28395757
131	0xbe20f38c	-0.15717906
132	0x3b296688	0.0025848467
133	0xbf00e44d	-0.5034836
134	0xbe750afc	-0.23929971
135	0x3eac0610	0.33598375
136	0x3efbd6b8	0.49187255
137	0x3ea6ba20	0.32563877
138	0xbda51803	-0.080612205
139	0x3ef42cc1	0.47690395
140	0xbc66698b	-0.014063249
141	0x3e1b663d	0.1517572
142	0x3dc0262d	0.093822815
143	0x3cb50977	0.02209924
144	0x3e0b6de3	0.13616137
145	0xbe2d9a5e	-0.16953418
146	0xbdb3c851	-0.08778442
147	0xbd4bdd47	-0.049771573
148	0x3d139ee8	0.036040217
149	0xbd4c8b97	-0.04993781
150	0x3e17daaa	0.14829507
151	0xbe122614	-0.14272338
152	0xbb47f3b5	-0.003051025
153	0xbda5971e	-0.08085464
154	0xbe1cce1c	-0.15313
155	0xbf49efc8	-0.788815
156	0x3c374ed5	0.011188229
157	0x3e64ff53	0.22363023
158	0xbe21c13d	-0.15796371
159	0xbdea983b	-0.11454817
160	0xbdb6fba3	-0.08934715
161	0xbda4532c	-0.08023676
162	0xbce89150	-0.028389603
163	0xbd786103	-0.060639393
164	0xbf7c18dd	-0.9847544
165	0x3ee5b92d	0.4486784
166	0x3ce64b0a	0.028111953
167	0x3df9d17e	0.121981606
168	0xbf0b041e	-0.5430316
169	0x3ea488a6	0.32135504
170	0x3eea8eef	0.45812175
171	0xbda25d4d	-0.07927952
172	0xbcc9d79b	-0.024638942
173	0xbce61303	-0.028085237
174	0xbdfa4244	-0.122196704
175	0xbc5a774c	-0.013334107
176	0xbd82f2b6	-0.0639395
177	0x3be3942b	0.006945153
178	0xbbcc2a92	-0.0062306607
179	0xbda551c6	-0.08072238
180	0xbe455011	-0.19268824
181	0xbc879cf1	-0.016554328
182	0xbf572359	-0.8403831
183	0x3e8f9ecc	0.2805084
184	0xbd9a76bd	-0.07542179
185	0x3e1a35f7	0.15059648
186	0xbebd8c82	-0.3702126
187	0x3db4b05e	0.08822702
188	0xbd976c71	-0.073937304
189	0xbdb0a6b8	-0.08625549
190	0x3f56131a	0.83622897
191	0xbda87c74	-0.082268625
192	0xbeabc3e8	-0.33547902
193	0xbf5585d5	-0.83407336
194	0xbd1e710b	-0.038682025
195	0xbdd3baff	-0.10338401
196	0x3e45e8cb	0.19327085
197	0xbf22c5a8	-0.6358285
198	0xbe55a27a	-0.20862761
199	0xbe136834	-0.14395219
200	0xbb3d4aa2	-0.0028883596
201	0xbe8cbeb7	-0.27489254
202	0xbd44db66	-0.048060797
203	0x3e602222	0.2188802
204	0x3d0b74d6	0.03404697
205	0xbdde4e79	-0.10854811
206	0xbcfefb9f	-0.031125842
207	0x3ce92242	0.028458718
208	0xbd957427	-0.07297545
209	0x3dc75940	0.0973382
210	0xbeabd475	-0.3356053
211	0xbd916a66	-0.07100372
212	0xbf163b3a	-0.5868412
213	0xbd22989c	-0.03969632
214	0x3d71571e	0.058920972
215	0xbdb79262	-0.08963467
216	0x3e3db915	0.18527634
217	0x38d24653	0.00010026679
218	0xbce529bf	-0.027974008
219	0xbf01f828	-0.5076928
220	0x3eddcb17	0.43319008
221	0xbe3cd3c5	-0.18440159
222	0xbf78b6da	-0.9715401
223	0xbd4adb02	-0.04952527
224	0xbd6ed66e	-0.058309965
225	0xbd65b2b5	-0.05607863
226	0x3c93e300	0.018052578
227	0xbe067b80	-0.13133049
228	0xbd02444b	-0.03180341
229	0x3db6bd3b	0.089228116
230	0xbd9c584e	-0.0763403
231	0x3db5c1fb	0.088748895
232	0x3e37b0a2	0.17938474
233	0xbdb3aceb	-0.08773216
234	0x3c87786f	0.01653692
235	0x3e6a9e96	0.22912058
236	0x3e723e5e	0.23656604
237	0x3e0f6831	0.1400459
238	0x3e7cf20e	0.24701712
239	0x3dee3853	0.11631837
240	0xbe179518	-0.14802969
241	0xbd83fe62	-0.06445004
242	0x3c1d261a	0.009591604
243	0x3dff3470	0.124611735
244	0x3eb7a1ee	0.3586573
245	0x3e8b26fe	0.27178186
246	0xbed258ba	-0.41083318
247	0xbcba98bc	-0.022777908
248	0xbd64985b	-0.05580936
249	0xbe201551	-0.15633132
250	0xbcc2879f	-0.02374631
251	0xbf61f133	-0.88258666
252	0xbda328c4	-0.0796676
253	0xbd8c31d0	-0.068454385
254	0x3eb672ed	0.35634556
255	0xbbd5da53	-0.0065262704
